assets/model.tflite (tflite, 905748 bytes, 12 tensors)

arith.constant f4 [64]
000000 03 9d 8f bd 43 44 c2 bd 6d 55 87 be d0 36 5b be
       -0.070123695 -0.09485676 -0.26432362 -0.21407628
000010 c1 27 e2 bd 4a ca 9b be cd cc 81 be a7 36 09 be
       -0.11042739 -0.30427772 -0.25351563 -0.13399754
000020 32 aa c8 bd ca a4 54 be 59 d4 00 be e7 f7 08 be
       -0.09798087 -0.20765987 -0.12581004 -0.13375817
000030 38 51 77 bd 35 19 86 be fe a5 f7 bd f8 4b bc bc
       -0.06038019 -0.26191106 -0.12092207 -0.022985443
000040 5e 3b 7b be d3 f7 fa bd ba c3 6d be 49 3c 0a be
       -0.24534366 -0.122543 -0.23219195 -0.1349956
000050 d3 c3 2f bd f0 70 87 be 9a 20 e3 bd 2d 4d 22 be
       -0.042911362 -0.26453352 -0.11090203 -0.15849753
000060 5a 3f 3e bd 4c 8a 93 be fd a9 37 be e2 8e 57 be
       -0.046447136 -0.2881645 -0.17935939 -0.21050599
000070 bd 43 e4 3d 1d 84 f0 bd 1d ce 1b be 55 f1 5c bd
       0.111457326 -0.117439486 -0.15215345 -0.05394109
000080 e1 66 96 3c 62 7e fb bd f1 32 37 be e7 fc 17 be
       0.018359603 -0.12279965 -0.17890526 -0.14842568
000090 ed 28 39 be 48 61 e2 bd d0 3d 50 be 5c 23 5f be
       -0.18082018 -0.11053711 -0.2033608 -0.21790832
0000a0 19 14 27 bd 61 9e af bd c5 fa cc bd 63 a4 e4 3d
       -0.04079065 -0.0857513 -0.10008768 0.11164167
0000b0 8f f8 23 be f2 76 ca 3d f8 b6 01 be e0 94 1f be
       -0.16012786 0.09885968 -0.12667453 -0.15584135
0000c0 9b b6 80 be bf 36 8f bc 1d 23 4a be 8c 13 6a bc
       -0.25139317 -0.01748216 -0.19739957 -0.014286887
0000d0 36 93 ae bd 03 b2 b7 bd b6 bd f3 bd ae da 3c be
       -0.08524172 -0.089695 -0.11901419 -0.18442795
0000e0 16 c6 a6 3c dc b0 6c be 8a d3 f5 bd c9 3c d4 bb
       0.020358127 -0.23114341 -0.120032385 -0.0064769727
0000f0 8f 96 ee bd 5e fe 89 bd b1 cf 7f bd 63 28 e7 bd
       -0.116498105 -0.0673797 -0.06245393 -0.11287

arith.constant1 f4 [10, 128]
000000 92 6a 1a 3d 67 be 06 bd 25 2b 41 bd c2 43 47 bd
       0.03769929 -0.032896426 -0.047160286 -0.048648603
000010 13 0a 68 bc 38 6c 14 3d 32 af 02 bd 4c cb 97 3c
       -0.014162558 0.036236018 -0.03190536 0.018529557
000020 f2 4e 44 3d 02 89 1a 3d df e2 89 3d 3d 9b 00 bd
       0.04792685 0.037728317 0.06732725 -0.031398047
000030 67 56 79 3d 76 d3 31 bd 20 7b 0f 3d 08 b2 0e bd
       0.060873415 -0.043414555 0.03502953 -0.034837753
000040 ab 56 0a bd 3f 37 c3 bc f2 e1 ec 3c 72 70 16 3d
       -0.03377406 -0.023830054 0.028916333 0.03672833
000050 fb 6d 0d bd fb cf 20 bc ec 5e 24 bd 1a c2 00 bd
       -0.034528714 -0.009815211 -0.040129587 -0.03143511
000060 f9 6b ab 3c 32 2a 79 bd af cb b7 3a e8 1d c9 3b
       0.020925509 -0.060831256 0.0014022494 0.0061375983
000070 a0 19 de 3c 61 c7 cf bb 39 55 e6 bc 77 3a 08 3d
       0.027111828 -0.0063409065 -0.02811681 0.03325888
000080 f8 e9 1e bd f8 19 90 3d b4 52 4b bd c7 ef c3 bc
       -0.03879735 0.07036203 -0.04963942 -0.023918046
000090 09 8f e6 3c e5 1c f2 bc 8f 3c 7f bc cb bc fa bc
       0.028144376 -0.029554794 -0.015578403 -0.030607602
0000a0 16 9e 03 3d a8 fe 45 bb 7f 81 89 bc 2a 18 cb 3c
       0.032133184 -0.0030211601 -0.016785381 0.024791796
0000b0 db 5b 83 bd 90 f4 09 bd 70 1f 40 bd f4 71 9a bc
       -0.064140044 -0.0336805 -0.04690498 -0.018853165
0000c0 31 da 8d bd 9b 6f 3e 3c dc 83 fe bc 77 73 43 bd
       -0.06926382 0.0116232885 -0.031068735 -0.047717538
0000d0 ce 10 f4 bc d5 55 09 bc 7d a4 43 3d b9 c5 84 bd
       -0.02979317 -0.00838228 0.04776429 -0.06483025
0000e0 35 9b 3b bd cc 2a 3a 3d f3 e8 72 bd c8 3f 53 bd
       -0.045802314 0.04545097 -0.05930419 -0.0515745
0000f0 dc bc 0d 3d f1 fb d4 bc a8 98 04 bd 2d 00 77 bb
       0.03460394 -0.025999041 -0.032372147 -0.0037689314
000100 b8 1b 00 c0 85 83 fd 3c d3 15 81 3d 46 97 ba 3c
       -2.0016918 0.030946502 0.06302991 0.02277721
000110 97 6e 0a bd a0 e4 27 bd 17 8a 33 3d 0d f4 22 3d
       -0.033796873 -0.04098952 0.043832865 0.039783526
000120 6f 66 62 3d d0 80 3e bd a2 36 88 3d 8d 32 bc 3c
       0.05527347 -0.046509564 0.066510454 0.022973323
000130 54 f8 8e 3c 1b 4e 9e bd 23 43 3a 3d 5f c2 06 bb
       0.017452396 -0.07729741 0.045474183 -0.0020562632
000140 26 d1 5a 3d fb 1b aa 3c 4d ec 4a bd a8 6f 0d 3d
       0.053422116 0.020765295 -0.04954176 0.03453031
000150 bc 7f df 3c f4 06 8b 3d ac da e1 bc d9 82 b5 3c
       0.027282588 0.067884356 -0.027570091 0.02215712
000160 d5 02 a8 3c f6 8b 16 3d ee a6 4d bd c5 21 81 3a
       0.020509163 0.03675457 -0.050208025 0.0009851983
000170 6b 80 b6 bc 8d 7d 61 3c 9b 53 57 3d 9c 41 0f bb
       -0.022278031 0.013762844 0.052569967 -0.0021859175
000180 4e d6 ba bb f9 f5 b3 3c 37 ce 2d 3d 1e f9 5b bd
       -0.0057018166 0.021967875 0.04243299 -0.053704374
000190 11 25 08 bd 34 5c 5c 3d 1f 8f 32 3d 2b f0 89 bc
       -0.033238474 0.05379887 0.043593522 -0.016838154
0001a0 41 36 3d 3d 45 06 48 bb 75 9c 98 bd 76 7b a9 bc
       0.04619432 -0.0030521315 -0.07451717 -0.020688754
0001b0 a4 da 5e 3d 13 54 04 3d 31 69 ec 3c 7e 50 4a 3c
       0.05440773 0.032306742 0.028858753 0.012348292
0001c0 42 ff 72 3d f6 b7 13 bd c0 a9 a3 bc ea 65 49 bd
       0.059325464 -0.03606411 -0.019978404 -0.04916946
0001d0 de 60 07 bd 2e 6e d6 bc 29 30 b6 bb 50 ca b6 bb
       -0.033051364 -0.026175585 -0.0055599404 -0.0055783167
0001e0 d6 e2 a3 3c e2 96 0a bd fa 0f c5 bc 51 13 46 bd
       0.020005625 -0.0338353 -0.02405547 -0.048358265
0001f0 03 a2 46 3d 97 c6 14 3d 1f 06 6e bd 5f 68 1b 3c
       0.04849435 0.036322203 -0.058111306 0.009485333
000200 6e 73 51 bc 61 66 11 bd ce 5c 0c 3d 08 8f c9 bc
       -0.012783868 -0.035498027 0.034268193 -0.024604335
000210 c8 3c 3b bd 28 1e 06 3d c7 91 50 bd ec 0c ee bc
       -0.045712262 0.032743603 -0.050920274 -0.029058896
000220 68 2a c1 bc 14 a3 9d bc c2 21 3a bc 0e 98 02 3d
       -0.023579791 -0.0192428 -0.011360588 0.031883292
000230 b8 6a 17 3d e9 64 97 bb a7 8d e2 bc dd 01 ac 3d
       0.03696701 -0.0046201837 -0.027655436 0.08398793
000240 4f e4 1b 3d 8d bd fd 3c 3f 05 84 ba 91 a0 04 3d
       0.03805953 0.030974174 -0.0010072364 0.03237969
000250 6d f4 08 bc 71 33 fa bc a4 45 77 bc 87 51 ef bc
       -0.008359057 -0.030542107 -0.015092287 -0.02921368
000260 c1 69 e9 bc 4a b4 56 3c f9 bc ba bc 7a fd ec 3c
       -0.02849281 0.013104508 -0.022795187 0.02892946
000270 08 80 50 bd 7f 71 43 3c 31 67 b0 bc b8 4e 57 3c
       -0.05090335 0.011928915 -0.02153358 0.013141327
000280 b1 af 68 bc bd 39 56 3c 9e 64 fa bc 7c 70 8a bc
       -0.014202044 0.013075289 -0.030565556 -0.01689934
000290 f1 1e b7 3c a2 89 47 bd 68 ee 83 3d 2c af f2 3c
       0.022353621 -0.04871524 0.06441957 0.029624544
0002a0 f9 23 ad bb 55 22 0d bd 85 76 8b bc 44 1d 1b bc
       -0.0052838293 -0.03445657 -0.017024288 -0.009467427
0002b0 f5 75 3d bd 0c f1 e4 bc 05 84 a4 3c 63 81 04 3d
       -0.04625507 -0.027946971 0.020082483 0.032349955
0002c0 5d 4e 84 3d 1b 02 92 bd 85 b1 25 3d cf ad 7c 3d
       0.06460259 -0.07129308 0.0404525 0.061689194
0002d0 66 53 b9 bc 94 23 23 bd d7 4a 57 3d 7d 23 9d 3c
       -0.022622775 -0.03982885 0.052561607 0.019181961
0002e0 e3 d5 6f bb 9f f0 17 bd ee c5 40 bd f6 68 b7 3c
       -0.0036595992 -0.03709471 -0.04706376 0.022388916
0002f0 f1 ae 0a bd 71 6e ce 3c 5c 59 86 3d 95 f1 a6 3c
       -0.033858243 0.025199147 0.06560013 0.020378867
000300 16 50 e2 3f 11 dc 1b bc d7 76 91 3d 86 38 27 3d
       1.768069 -0.009512917 0.07102745 0.04082539
000310 23 e1 2c bd 97 9a 0d 3d 38 f1 a3 bb 46 fa 15 bc
       -0.042206895 0.034571256 -0.0050031208 -0.009153908
000320 d0 3a 89 bc 14 b1 6d 3d 16 92 af 3c c6 9c a0 bb
       -0.016751677 0.058030203 0.021431964 -0.0049015014
000330 14 8a 83 3c 8f b0 15 bd c4 09 c7 3c 25 f8 e0 bc
       0.016057052 -0.036545333 0.024296649 -0.027462075
000340 da 91 3d bc eb 38 4b bd 9d 68 25 bd f0 25 d4 bc
       -0.011570418 -0.049614828 -0.04038297 -0.025896996
000350 49 ce 1f bd 6f 28 0f bd e0 50 6a bc 16 d7 30 bd
       -0.03901509 -0.03495067 -0.014301509 -0.043173872
000360 cd ad cb 3d 22 bd c8 bc 65 0e 2c bd 63 a8 00 3d
       0.09945259 -0.024504248 -0.042005915 0.031410586
000370 a9 a2 b9 bc 41 2e 03 bd e5 28 9e 3c d8 d9 40 bd
       -0.02266057 -0.032026533 0.01930661 -0.047082752
000380 a4 67 67 3d c2 86 0a bd 5d fb 82 bd 5c 59 95 3d
       0.056495324 -0.03381992 -0.063956 0.072924346
000390 e1 31 2e 3d f2 eb 75 3d 51 3f c1 3c ed 5c 3e 3d
       0.042528037 0.060039468 0.023589762 0.04647534
0003a0 ed 99 0a bd df 26 93 3d df 3a 87 bd 9f 89 57 3d
       -0.0338382 0.071851484 -0.06603026 0.05262148
0003b0 bb fc eb bc 53 30 df bc 21 ff 98 3c 5e f0 7e 3b
       -0.028807035 -0.027244722 0.018676342 0.0038900594
0003c0 3c ac 0f 3d 1f cf 71 3d 13 62 82 bd 41 ad 02 3d
       0.035076365 0.059035417 -0.063663624 0.03190351
0003d0 d8 07 b4 3d aa 03 4e 3d 08 c1 e8 3c 88 8a 25 bd
       0.087905586 0.050296463 0.028412357 -0.040415317
0003e0 05 98 f7 3d 1b 76 90 bd 6f 9a 27 bd 17 1c 36 3d
       0.12089542 -0.07053777 -0.040918764 0.044460382
0003f0 b4 0d e3 3c 28 06 d3 bc d1 dc f5 bd 0f ad 4b 3d
       0.027716495 -0.025759771 -0.12005008 0.04972559

arith.constant2 f4 [10]
000000 e5 f0 d7 be b4 b5 dd 3f fe 51 b0 3f 1f 85 54 3f
       -0.42175975 1.7321076 1.3775022 0.83015627
000010 d2 56 b7 3e ad c7 e9 3f fd 0a 9e bf 34 d1 0c 3f
       0.35808426 1.8264061 -1.2347103 0.5500672
000020 68 0c 88 3f 0d 55 06 bd
       1.0628786 -0.032795954

arith.constant3 f4 [64, 3, 3, 32]
000000 8c 01 27 bd 64 c1 87 bd 05 fb 48 ba e2 3a 80 3d
       -0.04077296 -0.06628683 -0.00076667994 0.06261231
000010 5c c6 d5 bc 13 d7 9c bd e4 b1 ab 3b fd 1d 25 3d
       -0.026095562 -0.0765821 0.005239712 0.040311802
000020 8e b3 7e bd 2d b7 1a bd bf 71 81 ba a4 ef b0 3d
       -0.062182955 -0.037772346 -0.0009875818 0.08639458
000030 01 c6 01 3e 28 fe 00 3d 2a f2 2c bd e9 09 a7 3d
       0.12673189 0.031492382 -0.042223133 0.08156187
000040 5a 4d ba bd e3 07 52 3d 6f de 32 bd f5 b0 4e 3c
       -0.09096785 0.051277053 -0.04366916 0.012615432
000050 dd d1 4a bd 07 c8 d0 3c 21 12 39 3d a1 7e b5 3c
       -0.049516547 0.025486005 0.045183305 0.022155108
000060 d3 0d d2 3d 8c 6f 21 bd ac 4b 15 3d 55 09 c5 bc
       0.10256543 -0.03941302 0.03644912 -0.024052301
000070 95 26 79 bd 2f ec db 3c 7e dc c7 3c 24 ce 23 bd
       -0.06082781 0.02684602 0.024397131 -0.039991513
000080 14 d5 1f bd c0 17 08 be a4 56 51 bb 92 a0 95 bd
       -0.039021567 -0.1329031 -0.003194251 -0.07306017
000090 45 bf b3 3c c4 5d 24 bd 3c 68 1e bd 4c 1c 0b ba
       0.02194179 -0.040128484 -0.038673624 -0.0005306646
0000a0 26 36 8a bd a4 22 46 bd 90 ce 22 3d 14 ad 9f bd
       -0.06748609 -0.04837288 0.039747775 -0.07796684
0000b0 8b 24 6b 3d f8 6f a0 3d 38 2f 3a bb 52 ab 58 bb
       0.057407897 0.07833856 -0.0028409492 -0.00330611
0000c0 44 bf 85 bd eb c3 6f bd 05 a9 1e bc b4 ed 31 bd
       -0.06530622 -0.05853645 -0.009683852 -0.043439582
0000d0 f1 43 24 bb 6b ee 4e 3c ee 66 82 bd ce 2c 18 bd
       -0.002506491 0.012630085 -0.063672885 -0.037152104
0000e0 26 55 f1 3c c4 97 34 3d 71 09 50 3d e5 e6 59 bc
       0.029459547 0.044090047 0.050790254 -0.013299678
0000f0 e8 06 83 bd 05 b3 84 3c 9a 18 5a bc 8a c1 af 3d
       -0.06397802 0.016198644 -0.0133115295 0.085818365
000100 17 89 33 bd e9 b8 22 be da 12 31 3b af 9f 5c 3c
       -0.04383191 -0.1589085 0.0027019293 0.013465806
000110 50 e1 20 3d 3c 5e ec bc 4b fd b5 bd 11 26 c1 3d
       0.039277375 -0.028853528 -0.088862024 0.09431089
000120 88 f6 e6 bc 03 c8 81 3d d8 b7 0c 3a 4e de f9 bd
       -0.028193727 0.06336977 0.0005367971 -0.122006044
000130 83 6a 53 bd 95 b2 a4 3c 00 e9 b4 3d cf 1a c1 bc
       -0.05161525 0.020104686 0.08833504 -0.023572354
000140 eb 05 94 bd c3 a3 c8 bd 32 dd 04 bd e6 80 09 bd
       -0.07227691 -0.0979686 -0.03243751 -0.033570193
000150 74 5a 5e bb 09 65 90 3d b0 bd 89 bc e5 33 3b bc
       -0.0033928426 0.07050521 -0.016814083 -0.011425947
000160 e0 6a 1d bc b8 ee 80 bc a4 33 d4 3d 8a d0 2e bc
       -0.0096080005 -0.01573883 0.10361412 -0.010669837
000170 36 38 0b bd 40 c0 af 3b 42 77 07 be d8 3d 34 bd
       -0.033989154 0.005363494 -0.13229087 -0.04400429
000180 42 87 cd 3c 4a 78 91 bd 4e 51 5a 3c cd 89 d3 bd
       0.02508891 -0.071030214 0.013325049 -0.10329018
000190 ae 90 14 3c ec cd 56 bd a5 22 15 bd e5 d7 e8 3c
       0.009067697 -0.052442476 -0.036409993 0.028423259
0001a0 b9 52 7b bd 81 67 65 bd 6d 06 87 3d 95 f0 92 3c
       -0.061358187 -0.056006912 0.065930225 0.017936984
0001b0 8b 06 f2 3d 20 92 11 3e ba f5 6a bc c2 b2 31 3c
       0.11817654 0.14215899 -0.014340812 0.010845842
0001c0 76 a9 e6 bd 2d 82 83 3c cb fc 07 3d 57 e0 1b bd
       -0.11262791 0.016053284 0.033200067 -0.038055744
0001d0 a8 47 97 bd 8b c7 74 3b 58 62 45 bb 13 22 65 3d
       -0.07386714 0.0037350382 -0.0030118432 0.0559407
0001e0 b9 83 71 3d 34 ad 3c bd a3 ca 99 bc 36 13 11 bd
       0.05896351 -0.046063617 -0.018773383 -0.03541871
0001f0 b2 c0 0a be f0 0f f5 3d ba 00 2a 3d bf 37 a2 3d
       -0.1355007 0.119659305 0.0415046 0.07920789
000200 45 67 e3 bb c1 9f ae bd f4 c1 60 bc 64 1e 91 3b
       -0.006939801 -0.085265644 -0.013718117 0.0044286717
000210 7b ae 82 bd fe c4 4e 3c ab bf 06 bd fd a2 ab 3c
       -0.06380936 0.012620209 -0.032897633 0.020951742
000220 dd 0a 68 bd af 69 67 bd 47 bd 04 3d 59 88 53 bd
       -0.056650985 -0.056497272 0.03240707 -0.051643703
000230 7d 0b c4 3d 22 3f 16 3c cc 21 69 bd 8d ce 11 bd
       0.09572504 0.0091703255 -0.056916997 -0.035597373
000240 b3 22 a4 bd 09 d4 cd 3c e3 68 22 3c 0c 24 19 bc
       -0.08014431 0.02512552 0.009912702 -0.009346973
000250 cb 0e 5c bd 49 17 13 bd 0f c4 65 bd 1c e8 f6 bc
       -0.053725045 -0.03591088 -0.05609518 -0.030139975
000260 76 da a3 3c c2 7a c3 bb 78 36 fe 3b f2 21 86 bc
       0.020001631 -0.0059655616 0.007757958 -0.016373608
000270 12 d9 c8 bd eb a4 37 3d 24 ff 90 bd 0c 75 88 3d
       -0.09807028 0.044835012 -0.07079914 0.0666295
000280 44 b4 88 3c 59 b3 b8 bd d0 ff 1f bd e4 02 82 bd
       0.01668752 -0.09018583 -0.03906232 -0.063482076
000290 cc 45 ae 37 86 22 40 bd c1 19 ae bd ca e2 4c bd
       2.0774918e-05 -0.046907924 -0.08501006 -0.05002097
0002a0 78 61 7f bd 5a d7 e1 3c 5c 9c f7 3c 73 e9 b3 bd
       -0.062348813 0.027568508 0.030225925 -0.08784761
0002b0 1b b1 2f 3d 6c f8 9b bd 06 84 a0 3d 4f 7d 5f bc
       0.04289351 -0.07615742 0.078376815 -0.013640716
0002c0 64 88 96 bd 09 f8 90 bd a8 ac a3 3c c2 86 18 bd
       -0.07350233 -0.07078559 0.01997979 -0.03723789
0002d0 c7 87 36 bc b6 3c 1f 3c 52 5c 2c bd 19 52 ef bc
       -0.01114077 0.009719064 -0.04208023 -0.029213952
0002e0 fb 36 e3 3a d7 0d 5d bd c3 11 93 3b 9e 40 81 bb
       0.0017335111 -0.053968277 0.0044882013 -0.0039444705
0002f0 35 51 d5 bd 56 a7 b9 bd c0 cc 79 bd c3 6c 75 bd
       -0.1041588 -0.0906512 -0.06098628 -0.059918176
000300 6c 18 8c bd ca 9a 39 be 3c 26 88 bd a0 02 24 bd
       -0.068405956 -0.18125454 -0.06647918 -0.040041566
000310 55 fe 45 3d 9a 5d 86 3b 5f 15 04 bd 0c 81 54 3d
       0.048338253 0.0041005136 -0.032246944 0.05188088
000320 12 d2 83 bd 76 b4 91 bc 77 57 f7 bb bb 8d 1a 3b
       -0.06436552 -0.017786246 -0.0075482684 0.0023583013
000330 0b e5 63 3c 0c 44 56 3d 02 83 90 3d 00 22 34 bc
       0.013909589 0.05231099 0.07056238 -0.010994434
000340 dc 28 1a be 27 9e c1 3c 72 7c cc bc 29 9c 91 bc
       -0.15054649 0.023634983 -0.024961684 -0.017774658
000350 98 e1 9a bc 1f 78 b0 3d fb 59 a1 3c e7 51 9a 3b
       -0.0189064 0.08616661 0.019696226 0.0047094706
000360 75 55 b0 bc 46 ec c1 bd af 65 98 3c 05 6f 6b 3d
       -0.021525124 -0.09468894 0.018603174 0.057478923
000370 e3 61 36 be 4b bc 2c 3d 4d 20 a0 bc fa 8d d3 3b
       -0.17810778 0.042171758 -0.019546652 0.006456134
000380 c3 49 bf bd fd a4 00 be 6b 93 88 bd 5a 65 f8 3d
       -0.09340241 -0.12562938 -0.06668743 0.12128706
000390 18 61 43 bd 97 62 c2 bc 7f ea 44 bd 29 83 20 3d
       -0.047700018 -0.023728652 -0.048075195 0.039187584
0003a0 36 85 92 bd 4a d2 99 bd 96 9e 86 3b 87 49 b9 bd
       -0.07154314 -0.075108126 0.0041082604 -0.09047227
0003b0 9b 8f 10 3d 7d 85 c7 bc 5a 2b 3d bd cf 0d f6 3d
       0.035293203 -0.024355644 -0.04618392 0.120143525
0003c0 60 aa 1a be 5e dd d0 bc 5a b2 f2 bc 45 40 5c 3c
       -0.15104055 -0.025496181 -0.02962606 0.013443057
0003d0 32 b5 1f bd d3 21 ab 3b c2 19 31 bd 39 90 a8 bc
       -0.03899116 0.005222538 -0.043237455 -0.020576583
0003e0 db 77 65 bd f8 da 87 bd a8 49 24 3d f2 8c 5f bd
       -0.056022506 -0.06633562 0.040109307 -0.054577775
0003f0 28 68 ef bc f8 a1 2f 3d 48 01 af bd 09 5c 10 bd
       -0.02922447 0.042879075 -0.08545166 -0.03524402

arith.constant4 f4 [128, 1600]
000000 c1 9e fd 3c b8 2c 8e bb 30 d1 f1 3c b9 f3 bc bc
       0.030959489 -0.004338827 0.029518694 -0.023065435
000010 18 bd ef bc a0 95 0f bc cb 48 9a bd 01 9b 85 bd
       -0.029264972 -0.008763701 -0.075334154 -0.06523705
000020 67 f0 99 bc 56 bd 20 3d 9d ee 74 3c fb c3 a7 3b
       -0.01879139 0.039243065 0.014949468 0.0051197982
000030 25 34 9d bb f6 8f bb bb e3 df 65 bd 30 c7 6c 3c
       -0.004797476 -0.0057239486 -0.05612172 0.014451787
000040 55 46 29 bd ec 25 03 bd 16 47 a8 3c f6 38 9b 3a
       -0.04132684 -0.032018587 0.020541709 0.0011842537
000050 01 ca ca 3c 7b 51 62 bd 85 82 df 3c b9 0a 8c 3b
       0.024754526 -0.055253487 0.027283916 0.004273739
000060 42 1b 34 bd d3 68 49 bb fb 0c e9 3c e0 1f 19 bd
       -0.043971308 -0.0030732646 0.028448572 -0.037383914
000070 fd a8 a1 3c 0c 4e 8a 3d bb a6 b7 bc 5a 97 a4 bc
       0.0197339 0.067531675 -0.02241837 -0.020091701
000080 1f 2a 36 bd fa 80 23 bd 72 5e 0f bc 4c 2a cb 3c
       -0.044473764 -0.039917924 -0.008750545 0.024800442
000090 14 81 2a bd 36 fb bd bd ea d2 08 3c be 01 22 bd
       -0.041627005 -0.0927643 0.008351067 -0.039552443
0000a0 b0 4d bf 3c 88 9d b9 3c 05 6b 15 bd 5c 06 bf 3b
       0.023352474 0.022658125 -0.036479015 0.0058296155
0000b0 ed 7d ab 3b 5d e4 a2 3b ee bd 7a bc 76 6b ba bc
       0.0052335174 0.0049710707 -0.015304072 -0.02275632
0000c0 da 37 a6 bc 75 76 6c 3c 23 10 81 3d 97 1d 09 3c
       -0.020290304 0.014432539 0.06301906 0.008368871
0000d0 88 3c be 3c f5 6a 6d bb cf 04 72 3c 00 d0 36 bb
       0.023222223 -0.0036227081 0.014771654 -0.0027894974
0000e0 56 55 6c bb 7d ff 02 bd 1f 21 87 bc 17 e1 fd bc
       -0.0036061606 -0.031981934 -0.016495286 -0.03099112
0000f0 b1 1c 9b bc cf 9a 5c 3c bd f1 b8 3c 34 5f 60 3c
       -0.01893458 0.013464644 0.022576207 0.013694573
000100 29 d9 7c 3d 7d 4b 34 3d 50 82 7c 3d d9 2e 69 3d
       0.061730538 0.044017304 0.061647713 0.056929443
000110 6d cf 87 3c 1b 62 d9 bd 9c 99 0f be 72 c5 9c bc
       0.0165784 -0.10614415 -0.14023441 -0.019137118
000120 f8 b4 2f 3d bb 2f 3c bd 53 e8 b5 bb bb 8a 07 bd
       0.042897195 -0.045943957 -0.005551377 -0.033091288
000130 46 ae 83 bd c1 78 49 3d a4 4b c7 bc 84 45 ca 3c
       -0.064297244 0.049187426 -0.02432806 0.02469135
000140 e3 21 48 bd 89 37 2e bc 2d 91 f3 bc 4e 35 2a bd
       -0.048860442 -0.010633358 -0.029732311 -0.04155474
000150 23 e8 df 3d d6 18 f2 3c bc 99 70 3c 93 79 7f 3c
       0.109329484 0.029552858 0.014685091 0.01559295
000160 1b 54 f8 bb 71 c0 89 bc 62 b2 82 bc da a7 70 bb
       -0.0075783855 -0.016815396 -0.0159542 -0.003672114
000170 58 82 45 bc 09 ff 77 3d cc 1e 87 bc 7c 04 56 bd
       -0.012055002 0.060545955 -0.016494177 -0.05225037
000180 d3 44 c7 bc ec 3c c9 3d 15 5e 3d bc 24 31 6b 3c
       -0.02432481 0.09826073 -0.011558075 0.014354978
000190 54 b7 74 bc 29 cd cc bc 05 27 a7 3c 1d 67 75 bd
       -0.014936287 -0.025000172 0.020404348 -0.05991279
0001a0 12 43 91 3c 7e 03 bb bc 09 86 39 3a c9 d4 ab 3b
       0.017732177 -0.022828814 0.0007077163 0.005243872
0001b0 85 ab f4 bc 8b 22 24 3c 3c f0 68 bc 82 f2 bd bc
       -0.029866943 0.010018001 -0.014217433 -0.023186926
0001c0 06 1b 22 3c f0 d1 c4 bb cd 44 80 bd 99 5b 05 3d
       0.009894138 -0.006006472 -0.06263123 0.032558057
0001d0 dd a8 35 3b 97 3e d6 3c 34 3a ba 3c 73 30 20 3d
       0.0027719059 0.026152892 0.022732832 0.039108705
0001e0 51 07 a6 bb 1e ec c2 bc 6a 94 3f bc 0a 2d e3 3b
       -0.00506679 -0.02379423 -0.0116930995 0.0069328593
0001f0 ea 4f 5c bd dd c3 52 bc 52 04 15 bd ff 34 80 3d
       -0.05378715 -0.01286408 -0.036381073 0.06260108
000200 52 2a e4 3b 32 30 8a bd 4b a5 c4 bb e6 02 a2 3c
       0.006963053 -0.06747474 -0.00600115 0.019776773
000210 36 e7 d4 3b 93 f9 c0 bd 9b 74 d5 bd ee 94 e2 3d
       0.006497289 -0.094226025 -0.10422631 0.11063562
000220 5b e4 74 bd 20 bd 85 bd bd b9 d5 3c 99 95 0d bd
       -0.05978809 -0.06530213 0.026089543 -0.034566496
000230 9f 20 8a bd d9 8b 63 3d b5 2d d4 bb de b9 58 bd
       -0.06744503 0.05555329 -0.0064751753 -0.05291163
000240 47 4f 54 3c 52 7f a7 3b 50 34 33 bd fe 5b c0 bd
       0.012958354 0.0051116133 -0.04375106 -0.09392546
000250 65 01 63 3b c2 3f 45 3d 7d db 93 3d 28 1b fd 3b
       0.0034638282 0.048156507 0.072195984 0.0077241845
000260 ee 34 ad bc 7b 47 aa 3c 01 3f 06 bd 24 61 7d 3d
       -0.021143403 0.020786038 -0.03277493 0.06186022
000270 9e b9 3d bd 93 e9 36 3d 47 65 a8 3c 91 e0 b5 ba
       -0.046319596 0.044656347 0.020556105 -0.001387613
000280 a5 a1 07 bd 7f 22 1e bd d6 3a 10 bc c5 ef 25 bc
       -0.03311314 -0.038607117 -0.00880309 -0.010127966
000290 24 b7 be bc 40 1a 78 3c 1d 58 17 bd db 93 e9 bb
       -0.023280688 0.015142977 -0.036949266 -0.0071282214
0002a0 f2 bd 4e bb 25 ba 73 bd 40 dc 8e 3d b3 73 d5 bc
       -0.0031546322 -0.059503693 0.06975603 -0.026056146
0002b0 3a 87 de bd 57 81 de 3c 25 49 95 bc 46 12 34 3b
       -0.10865636 0.027161283 -0.018223355 0.0027476712
0002c0 78 4f 78 3d b9 f5 6b 3c df a3 a2 bd 55 d0 82 bd
       0.060622662 0.014401847 -0.07941412 -0.063873924
0002d0 40 b7 fb bc f2 24 a0 bc 41 2b 50 3d 77 c1 e0 3d
       -0.030727029 -0.019548867 0.0508225 0.109744005
0002e0 12 67 14 3d ee 32 37 bd 57 d3 c5 3a 51 7a 49 3c
       0.036231108 -0.044726305 0.0015092891 0.012297229
0002f0 ba b8 59 bc df 4e 1d be 9a b0 13 3a b8 fd ab bc
       -0.013288671 -0.15362118 0.00056339207 -0.020995006
000300 45 90 8b bd 87 11 e3 bb 23 b6 be 3c da ec 28 bd
       -0.068146266 -0.0069295797 0.023280209 -0.041241504
000310 18 35 0f bd bf 2e ed 3b 6f 99 3d bd 44 cc 90 3c
       -0.034962744 0.0072382386 -0.046288904 0.017675526
000320 26 1f b0 bb 4c 45 5a bd 42 3f d7 ba 72 87 9a bd
       -0.005374807 -0.053288743 -0.001642205 -0.075453654
000330 46 af 2e bb 4a dc a1 3d 9c c4 53 bd 05 b4 6a bd
       -0.0026654764 0.07903345 -0.051701173 -0.057300586
000340 41 62 12 bd 6b 55 89 3d 4a 94 44 bd 94 21 91 bd
       -0.035738233 0.06705745 -0.047992982 -0.07086483
000350 20 92 91 bd 3c 78 16 bd 30 d0 a4 3d 78 35 db bd
       -0.07107949 -0.03673576 0.08047521 -0.10703558
000360 72 9c 30 3d 83 0c 10 bc 1b 19 45 3d 02 d7 b9 bc
       0.043117948 -0.0087920455 0.048119646 -0.022685532
000370 b9 6d 35 bd 5e f1 e6 3c 87 17 92 3d e0 1d b8 bb
       -0.044294093 0.028191265 0.07133394 -0.0056187958
000380 b1 55 1d bd c9 5e b2 bd 45 93 08 3d 0a 7c 21 bd
       -0.0384118 -0.08709485 0.033343572 -0.039424933
000390 a6 44 1a bd bf 91 b1 3d b1 bc e4 bc a3 3b 04 3b
       -0.037663125 0.08670377 -0.027922006 0.0020177148
0003a0 40 d6 ee ba 0e 8f bd bb bb 6c ad 3d b0 c2 7e bb
       -0.001822181 -0.0057848757 0.08468004 -0.0038873367
0003b0 69 bd 3a bd c2 89 19 3c 6a 93 56 3c 8c 04 8a 3c
       -0.04559079 0.009371223 0.01309667 0.016847871
0003c0 57 01 a9 3c 83 0f cc bb 0f df 26 bd 1c 34 bf bd
       0.020630522 -0.006227435 -0.04074007 -0.09336111
0003d0 6a 80 e2 bd 44 90 3f 3d a5 81 3f 3d 00 8f 91 3d
       -0.11059649 0.04676844 0.046754498 0.07107353
0003e0 0a c0 21 3d 85 d7 16 bd bf 73 b0 3c 99 3c 33 3d
       0.039489783 -0.03682663 0.021539567 0.043758962
0003f0 dc c8 93 3c be 8e aa bd d6 4a a7 3d 03 07 93 3c
       0.018040113 -0.08328007 0.08168571 0.01794768

arith.constant5 f4 [128]
000000 8c af 1b bd c9 78 04 3e 0f 05 11 bd 15 50 91 bd
       -0.03800921 0.12936701 -0.035405215 -0.070953526
000010 ba 9d 83 bd be 57 74 bd af 39 f1 3d 5b a0 a2 3d
       -0.06426568 -0.05965399 0.117785804 0.07940742
000020 ee 54 9c bd 32 e8 c0 bc 8c 82 23 3d 99 b2 9a bc
       -0.076333866 -0.02354822 0.03991942 -0.01888399
000030 cc a8 ef bc 94 d6 8f bd 34 fb b4 bd c1 b8 0b bd
       -0.029255293 -0.070233494 -0.08836976 -0.034111742
000040 30 e0 22 3d 4c 0a 07 bc 30 db ad bd fd 54 af 3d
       0.039764583 -0.008242201 -0.08489072 0.08561132
000050 7a b9 ae 3b ba 29 7c bc 76 f5 db 3d a8 b0 b4 3d
       0.005332169 -0.015390808 0.10740177 0.08822757
000060 02 9f c6 3d e0 57 7a bd de f1 60 bb 6c 14 8e bd
       0.09698297 -0.06111896 -0.0034323852 -0.06937489
000070 43 66 db bd 14 d0 42 bd d2 04 76 bd 3f 01 20 3d
       -0.10712864 -0.04756172 -0.06006319 0.03906369
000080 34 76 6d 3d 20 27 63 bd f7 e7 db 3d ca e6 54 3e
       0.057974055 -0.055457234 0.10737603 0.20791164
000090 6e 4e bd bc 5f 43 e5 3c 7c 07 92 bc 1f 92 29 3d
       -0.023108687 0.027986227 -0.017825834 0.041399118
0000a0 f3 74 40 bc 58 3a a9 3d 9f 5f eb 3d 43 b4 77 bd
       -0.011746633 0.08263081 0.11492848 -0.060474645
0000b0 67 56 dd 3d 7c 7c 0d bd 98 0e 01 be b2 54 b0 3d
       0.108074956 -0.034542546 -0.12603223 0.08609904
0000c0 53 0a 31 bc b8 ed 13 be 32 4b 0f 3e cd d7 9c 3c
       -0.010805684 -0.14446151 0.13993528 0.01914587
0000d0 83 d0 e8 3d 38 21 0f 3d 7a 79 87 3b 66 7f 3c 3d
       0.113678955 0.03494379 0.004134354 0.046019934
0000e0 97 62 8e bd 69 ae d6 bd 84 5a de 3b 73 99 61 bd
       -0.06952398 -0.10482485 0.0067856926 -0.05507798
0000f0 83 75 b8 bd db bd 62 3e 8c 4a bb 3c 7f 07 e7 3c
       -0.090067886 0.22142737 0.022862695 0.028201817
000100 8a 79 cf bd 2b 9e 9d bd 3e 26 4b bd 4f 01 87 3c
       -0.101306036 -0.07696184 -0.049597017 0.016480116
000110 9f a1 ac bb 31 4d 1c bd 9c 3d 19 bd ae 2f 47 bd
       -0.00526829 -0.038159553 -0.03741227 -0.048629455
000120 71 fd e7 3d 78 68 5c bd 49 29 50 bd f3 90 5e bd
       0.11327637 -0.053810567 -0.050820623 -0.054337453
000130 24 87 9c bd 1b dc 92 3d 24 d8 38 bd 28 1a cd 3c
       -0.076429635 0.07170888 -0.045128003 0.025036886
000140 86 83 9a bd fd 8f bc bd 12 79 6e 3d f1 54 14 3e
       -0.07544617 -0.09207151 0.05822093 0.14485528
000150 19 80 4e bd ec e8 0c bd 63 2c 38 bc d6 3b 41 3d
       -0.050415132 -0.03440182 -0.011241051 0.047176205
000160 0b 50 56 bd 0f 31 ba 3d 26 cc a3 bd 39 6e de 3b
       -0.05232243 0.090913884 -0.079979226 0.006788042
000170 a5 bf 83 3d 36 8f ec 3c b0 a2 95 3d 6b 33 ac bc
       0.06433038 0.028876882 0.07306421 -0.021020612
000180 4c 77 c0 bc 2c 79 9d bb 9a 99 7f bd 49 a7 30 bd
       -0.023494385 -0.0048057046 -0.062402345 -0.043128286
000190 29 c5 f4 bb 55 ce 7a bd 38 5c 0f bd 36 6c 87 3d
       -0.0074697924 -0.06123193 -0.035000056 0.066124365
0001a0 68 46 23 3b 72 f7 ff bd d5 8f 8b bb 66 c8 04 3e
       0.0024913792 -0.12498368 -0.0042590895 0.12967071
0001b0 a8 b1 8d bd 1e 1e 3a 3e 37 3b cf bb e1 4a f6 3d
       -0.06918651 0.18175551 -0.0063241976 0.12026001
0001c0 88 7b c3 bd d1 02 5e bd 54 3e c3 bd 3b e1 b1 bd
       -0.09545046 -0.054201905 -0.095333725 -0.086855374
0001d0 3c 03 ad bd d4 2e 25 bd c1 c5 82 3b bb 76 0f 3d
       -0.084478825 -0.040327862 0.0039908593 0.03502534
0001e0 9c 5d 7c bd 0d 04 db bd bd 0a c7 bd 38 cf 98 3d
       -0.06161271 -0.10694132 -0.09718845 0.07461399
0001f0 8c a1 7f bd a4 e2 6d 3e ee f4 91 bd f4 85 92 bd
       -0.062409922 0.23230988 -0.07126795 -0.07154456

functional_1_1/batch_normalization_1_2/batchnorm/mul f4 [64]
000000 28 dc ab 3f 23 f8 e2 3f 96 f6 49 40 cf 38 21 40
       1.3426561 1.7731975 3.1556754 2.5190923
000010 eb 55 11 40 70 61 23 40 12 69 ff 3f 4d b2 fa 3f
       2.270869 2.552822 1.995394 1.9585663
000020 80 d0 37 40 03 fa 37 40 91 cc 14 40 c6 31 e3 3f
       2.8721008 2.8746345 2.3249857 1.7749565
000030 ca 26 09 40 ce 84 e1 3f a4 27 e6 3f 6e 57 e5 3f
       2.1429925 1.7618654 1.7980847 1.7917306
000040 c9 07 3d 40 74 10 0b 40 f9 d6 eb 3f 1b 15 3b 40
       2.9536002 2.1728792 1.842498 2.9231632
000050 ca e9 e3 3f 68 26 62 40 c0 4c b3 3f 7d 57 08 40
       1.7805722 3.5335941 1.4007797 2.1303399
000060 c1 ae a9 3f 89 01 7d 40 60 ac 25 40 8b fe c8 3f
       1.3256456 3.9532187 2.588646 1.570268
000070 54 01 8d 3f 49 c9 99 3f 37 46 0b 40 f2 b9 82 3f
       1.101603 1.2014552 2.1761606 1.0212996
000080 63 53 16 40 01 f0 fc 3f d4 6b 14 40 d6 55 d0 3f
       2.3488395 1.9760743 2.3190813 1.6276195
000090 fa 42 04 40 8f 5a 76 3f 76 d7 35 40 0b c3 1c 40
       2.066588 0.9623193 2.8412757 2.4494045
0000a0 a7 a8 b1 3f 26 4c e4 3f 13 5f 32 40 76 20 6c 3f
       1.3879594 1.7835739 2.7870529 0.9223703
0000b0 46 e9 13 40 1b 1d 41 3f d6 45 2e 40 83 3a 1b 40
       2.3111129 0.75435036 2.7230124 2.4254463
0000c0 32 8f 2a 40 19 ef 74 3f c3 f3 cc 3f a7 5f 07 40
       2.66499 0.95677334 1.601189 2.1152132
0000d0 ba 7b 86 3f 3f 85 90 3f 10 03 91 3f a2 d4 03 40
       1.0506508 1.1290663 1.132906 2.059853
0000e0 5a d9 30 3f 55 01 7b 40 54 c1 ca 3f 1c ad 20 3f
       0.6908165 3.9219563 1.5840249 0.62764144
0000f0 dd ee 9b 3f a6 42 04 40 a7 ac 4c 40 9d 66 09 40
       1.218227 2.066568 3.1980379 2.146888

functional_1_1/batch_normalization_1_2/batchnorm/sub f4 [64]
000000 68 1d 01 bf 10 11 e7 be 19 b1 c8 be ca fe b2 be
       -0.50435495 -0.45130205 -0.39197615 -0.34960014
000010 0c e0 d7 be 94 1a a3 be 94 87 c1 be 56 28 d6 be
       -0.42163122 -0.31856215 -0.3779875 -0.4182765
000020 e0 c2 94 be 60 45 db be 31 f7 c9 be 4a d3 9f be
       -0.29054928 -0.42826366 -0.39446405 -0.31215888
000030 d1 71 15 bf 97 b7 c9 be 1f 72 70 be 78 55 34 bf
       -0.58376795 -0.3939788 -0.23481034 -0.70442915
000040 2e bb d7 be 0c 64 03 bf a0 7f ae be 66 cc cf be
       -0.42134994 -0.51324534 -0.34081745 -0.4058563
000050 96 12 49 bf ae 88 bd be 57 aa 13 bf 19 aa d6 be
       -0.78543985 -0.3701834 -0.5768179 -0.4192665
000060 94 5a c4 be 44 ee af be dc f5 c1 be 2a 4a eb be
       -0.38350356 -0.3436147 -0.37882888 -0.4595502
000070 06 99 f8 be eb c8 1e bf 0d eb 14 bf 34 d2 e3 be
       -0.48554248 -0.62025326 -0.5817116 -0.4449631
000080 26 63 c8 be a9 4c fd be 7c 26 fb be 70 df c9 be
       -0.39138144 -0.4947255 -0.490528 -0.39428282
000090 c8 0f 88 be 6a 2c 0b bf b4 8a c4 be 4c c7 c2 be
       -0.2657454 -0.54364645 -0.38387072 -0.38042676
0000a0 f7 a7 1e bf 2e f5 05 bf 91 c9 97 be 54 53 15 bf
       -0.61975044 -0.5232724 -0.2964597 -0.58330274
0000b0 8c 66 ab be ee 9b 40 bf 69 77 fc be 98 b4 f6 be
       -0.33476675 -0.7523793 -0.49309853 -0.48184657
0000c0 f8 f7 d2 be d4 8c e9 be 6e e9 fb be da 66 16 bf
       -0.4120481 -0.45615256 -0.4920153 -0.5875069
0000d0 08 e6 e5 be 56 d4 1f bf 81 b6 01 bf 9c 58 18 bf
       -0.44902062 -0.62433374 -0.50669104 -0.5951021
0000e0 b4 78 13 bf 42 ee b7 be 94 56 09 bf 22 5d 3c bf
       -0.57606053 -0.35923964 -0.5364773 -0.7357961
0000f0 ab 31 d7 be 4e ed 9f be 36 8f 2d bf a3 95 03 bf
       -0.4203008 -0.31235737 -0.6779665 -0.514002

functional_1_1/batch_normalization_1/batchnorm/mul f4 [32]
000000 08 92 ac 41 b2 db 9d 41 ed e1 00 42 f9 37 06 42
       21.571304 19.732273 32.22063 33.55466
000010 63 87 15 42 77 fd e5 41 9d 22 b3 41 6a 7b fd 41
       37.382214 28.748762 22.391901 31.68526
000020 8f fe f5 41 cf cc 99 41 1b 66 a5 41 1a e7 d9 40
       30.749296 19.225004 20.674856 6.8094606
000030 ca c0 e4 41 90 a7 e1 41 89 2b 01 42 95 f2 d5 41
       28.594135 28.206818 32.292515 26.743448
000040 9d 81 b2 41 bf 65 c6 41 38 d4 ef 41 10 f1 16 42
       22.313288 24.79968 29.978622 37.735413
000050 d5 fe d1 41 e0 bd ce 41 ee c4 07 41 1a 27 4c 41
       26.24943 25.842712 8.485579 12.759546
000060 49 93 bf 41 98 31 0c 42 37 ce fa 41 fe 03 c9 41
       23.946917 35.04843 31.35069 25.12695
000070 67 4b 06 42 78 36 a4 41 7b d0 ed 41 88 0a ad 41
       33.573635 20.526596 29.726797 21.630142

functional_1_1/batch_normalization_1/batchnorm/sub f4 [32]
000000 b2 e7 0b c0 ec 97 2d bf 4f f8 8f be 20 bf cb be
       -2.1860166 -0.6780994 -0.28119132 -0.39794254
000010 9f 3e d5 be a3 7d 36 be aa c9 7f bd b9 f0 d7 bd
       -0.4164934 -0.17821364 -0.06244818 -0.10543961
000020 ba 3a 37 be b2 e3 d3 bf 4e a6 70 be 23 d4 d2 be
       -0.17893496 -1.6553862 -0.2350094 -0.41177472
000030 94 b4 e2 bd f7 d5 58 bd e0 91 d7 be b4 2a 24 be
       -0.11069599 -0.052938428 -0.4210348 -0.16031915
000040 08 01 da bd 64 18 32 be e8 f5 d3 bd 76 5b 9c be
       -0.10644728 -0.17392117 -0.10349637 -0.3053853
000050 7c 00 18 bf 9e 8e bb be b6 c4 9c be 06 f0 c7 be
       -0.5937574 -0.36632246 -0.3061883 -0.3905031
000060 0e 66 a2 be 3d f8 62 be a9 85 c0 be 67 78 d7 bd
       -0.31718487 -0.22165008 -0.37601975 -0.10521012
000070 e1 ba 9d bd ec 6f 43 be 49 4e 98 be 3d 73 41 bf
       -0.0770166 -0.19085664 -0.29747227 -0.75566465

functional_1_1/conv2d_1/convolution f4 [32, 3, 3, 1]
000000 b0 ad 8f 3c 49 f1 02 3d 02 17 c6 3c 8c 5f ec bd
       0.017538875 0.03196839 0.024180893 -0.115416616
000010 3a 4c 2d be 8b 9c 8f 3d a4 fc f6 3d c4 3c 1d 3d
       -0.1692361 0.0701228 0.12059906 0.03838803
000020 46 d2 db bc 34 b1 e0 bd dc 50 0b be fd d6 a2 bd
       -0.026833665 -0.10971299 -0.13605064 -0.07951162
000030 b5 01 b1 bd fe 0c 12 3e 9c 57 02 3e 9a dd 19 3e
       -0.08642904 0.14262769 0.12728733 0.1502594
000040 55 50 f0 3b d4 d0 41 bd 17 4e 16 be fd 64 52 bd
       0.007333795 -0.047318295 -0.14678226 -0.05136584
000050 ad 23 82 bd a5 4a ef bb 38 2c 99 3c 17 48 7e be
       -0.06354461 -0.0073025995 0.018697843 -0.24832188
000060 b7 85 f9 3d db 0b 94 3d 47 49 66 bd 5c 3f ae 3d
       0.12183707 0.07228824 -0.056222226 0.085081786
000070 46 8d a5 3d 07 fd 02 be 64 1b a8 3d 10 6f da 3d
       0.080835864 -0.12791835 0.08208349 0.10665715
000080 64 13 8d be 90 b3 58 be c2 c9 4d be 44 9e c3 3d
       -0.27553856 -0.21162248 -0.20096496 0.09551671
000090 8f 55 31 be b5 a9 b9 3d 68 57 cf 3d d9 b2 e0 bd
       -0.17317794 0.09065572 0.10124093 -0.109716125
0000a0 ba d9 4c be 40 07 0d 3e 99 6b fd 3d be 79 c7 bd
       -0.20004931 0.13772297 0.12374038 -0.09740017
0000b0 70 98 43 be 19 41 1c bd 3c 97 d7 bd 74 46 50 be
       -0.19101119 -0.03814802 -0.105268925 -0.20339376
0000c0 3a 26 da bd 12 de a7 bb 8b c7 02 3e 74 fa 19 be
       -0.106518224 -0.0051229084 0.12771432 -0.15036947
0000d0 ea 9d 98 3d 12 33 da 3d c6 eb 72 bd 25 32 fa bd
       0.07451995 0.10654272 -0.059306882 -0.122165956
0000e0 53 d1 74 3a a0 b8 60 bd 11 ee 99 bd c9 ab a8 3d
       0.0009339053 -0.054863572 -0.07516111 0.082358904
0000f0 f8 d9 f6 3d 35 ff 9e bc 89 f3 1e 3e 48 c6 17 bc
       0.12053293 -0.019408802 0.15522589 -0.0092635825
000100 ff 4a 00 bd 86 3c d5 3d 01 23 48 be 6e 6e 11 be
       -0.03132152 0.104119346 -0.19544603 -0.14202282
000110 82 7b 5b 3d a4 c2 a4 be 5d 3d c3 bd b8 e4 e8 3d
       0.053584583 -0.3217975 -0.095331885 0.1137175
000120 af 40 60 be 92 c1 51 3a 6e 68 5d be 65 13 b2 bd
       -0.21899675 0.00080015615 -0.21621868 -0.086951055
000130 60 80 f9 3b bf ab 64 be a7 3c 75 3d 25 db 31 3e
       0.0076141804 -0.22331141 0.059872296 0.17368753
000140 db 4f ac 3d 19 11 ef 3d e2 30 de bb d3 26 79 3c
       0.08413669 0.11673183 -0.0067807296 0.01520701
000150 a9 22 2b be bd 1e 2d bd d5 04 8e 3c ad e5 3b bd
       -0.1671244 -0.042265642 0.017336288 -0.045873333
000160 c8 4f 82 39 85 04 e3 3d a0 16 96 bd 39 61 0b bd
       0.00024854974 0.110848464 -0.07328534 -0.034028266
000170 4e 2f 8e 3d 21 38 93 bd 6f 91 c7 3d 47 df 81 3d
       0.069426164 -0.0718844 0.09744536 0.06341415
000180 d6 6f 39 be c5 b0 b2 bd 8a 3a 3b 3d a8 31 49 3d
       -0.18109068 -0.08725122 0.045710124 0.04911962
000190 ce 5c 3e 3c 7b 52 be 3d 94 c6 02 3d a8 95 f7 bc
       0.011618806 0.09293076 0.03192766 -0.030222729
0001a0 ed f5 95 3c 53 ba 6d 3c 2c 39 48 3d 65 82 f5 3d
       0.018305743 0.014509755 0.04888265 0.119877614
0001b0 5a e9 52 3d 69 57 7d bd fe e9 36 3d c9 6d f2 3d
       0.051492073 -0.06185094 0.044656746 0.11837346
0001c0 2d da fb bd a8 df 33 be c1 25 aa 3c 6d 05 a0 3d
       -0.12297473 -0.17565787 0.020769956 0.07813535
0001d0 29 6b bc 3d af 5c 0e 3d 1b 5d b2 3d 98 ae 1a be
       0.09200127 0.03475636 0.08709165 -0.15105665
0001e0 b3 a4 b8 3d f3 e2 cd 3c 4d 89 e0 bd 75 94 e6 bd
       0.09015789 0.025132632 -0.10963688 -0.11258785
0001f0 ed cb 49 3e f6 98 03 3d 18 62 fc bd 10 8e 32 be
       0.19706698 0.032128297 -0.123233974 -0.17437005
000200 05 e0 3c be 0b 52 06 3e a4 57 b9 3b 04 d5 2a 3c
       -0.18444832 0.13117234 0.0056561995 0.010426763
000210 b9 56 19 3e 0f ec 03 bc 2e 18 99 be 39 70 0e 3e
       0.14974488 -0.008051886 -0.2990126 0.13909997
000220 cb 12 a6 3d 31 95 51 be 36 d9 21 3e ff bc b8 bd
       0.08109053 -0.20467068 0.15805516 -0.09020423
000230 32 fe c0 bd e1 a7 e8 bd 2a 76 1a be 12 95 d7 bd
       -0.09423484 -0.11360145 -0.15084139 -0.1052648
000240 e4 df b4 bd 49 c3 e5 bd b3 fe e4 bd 02 91 10 bd
       -0.08831766 -0.11218888 -0.111813925 -0.03529454
000250 15 2b ac 3b 25 76 ef bd 2b 9b c4 3d 7d 78 0e 3e
       0.005254159 -0.11692456 0.095999084 0.1391315
000260 2d 5a bb 3d 28 16 3e be 79 94 5d bb 18 e9 94 3b
       0.09148059 -0.1856314 -0.003381042 0.0045443885
000270 01 f2 25 3b 0d 6c d0 3a 8d e2 44 3d 0a a6 47 be
       0.0025321248 0.0015901342 0.04806762 -0.19496933
000280 c5 66 00 3b 7d 5a 16 3e 27 bc 63 be f7 9b f8 bd
       0.0019592505 0.14682956 -0.22239743 -0.12139123
000290 1e 27 b7 bd 50 43 8b bc d5 5f 10 3e b3 9d 19 bd
       -0.08943008 -0.01699987 0.14099057 -0.03750391
0002a0 7f 9e 37 be fd 30 97 3b 9f 5d 23 3e 65 33 2f 3e
       -0.17931555 0.004613994 0.15953682 0.17109449
0002b0 0b 38 07 be b1 7a 15 be 31 65 7b bd 3b 72 25 be
       -0.13204972 -0.14597584 -0.0613758 -0.16156857
0002c0 74 73 f4 3d 63 da 2f be 0f 5b 02 be d4 49 0e 3e
       0.119360834 -0.17173152 -0.12730049 0.1389535
0002d0 cc a1 50 3d 60 fa 9b 3d 88 2b ed 3d 47 06 e0 bd
       0.05093555 0.076161146 0.115805686 -0.10938697
0002e0 1b a4 c9 3d c1 b7 ab 3c 9f 3c 1c be 79 76 e9 bd
       0.09845754 0.020961644 -0.152575 -0.1139955
0002f0 9a aa 6f be b0 8b 27 bd db 37 f4 3d 45 9e bd 3d
       -0.23404923 -0.0409047 0.11924716 0.09258703
000300 dd db 19 be 60 1a 43 bd a9 be d8 3d 93 16 0f bd
       -0.15025277 -0.047632575 0.105832405 -0.034933638
000310 79 3b 02 be a8 2e 67 bd 09 cf 94 3d b1 7f 70 3c
       -0.12718 -0.05644098 0.07266051 0.0146788815
000320 fd b1 77 3d 02 ee 8c bd f2 f1 99 ba 06 c9 74 3c
       0.060472477 -0.06881334 -0.0011745079 0.014940506
000330 5c d4 4f 3d 06 b4 2d 3c 12 e5 bc 3d 45 6d 54 3d
       0.05073963 0.010602003 0.09223379 0.05186202
000340 58 52 5c bc 6b 2a 80 3d ab 97 aa 3c a4 1a aa bc
       -0.013447367 0.062580906 0.020824274 -0.020764656
000350 a3 e8 7c 3c dc e1 5d 3c 2a 2d 8c 3c 56 98 62 3c
       0.015436324 0.013542619 0.01711138 0.013830265
000360 0e 45 6e 3b 28 e8 9a bc 3b de 94 bd f4 8a 9e 3d
       0.0036357078 -0.018909529 -0.072689496 0.07741347
000370 96 09 0d be 69 3e ac bd bf 8a 05 3e 00 bc 08 3e
       -0.13773188 -0.08410341 0.13041209 0.13352966
000380 53 c8 32 be 9c d9 68 be 7e 45 5d bd 5f b8 5c be
       -0.1745923 -0.22739261 -0.05402135 -0.21554707
000390 13 cd ec bd 01 a2 6d bd f5 cc fd bd 94 01 79 bd
       -0.11562552 -0.058015827 -0.12392608 -0.06079252
0003a0 98 db f7 3c 34 ee 58 3e bb e7 19 3b 89 3e 45 ba
       0.030256078 0.21184617 0.002348407 -0.0007524272
0003b0 d6 a5 4e bc 60 2f 66 b9 20 38 44 ba 93 75 93 3c
       -0.012612781 -0.00021952158 -0.000748517 0.0180004
0003c0 34 a1 90 ba 81 99 8b ba 21 e2 31 bc 2b d5 dd 3c
       -0.001103437 -0.0010650606 -0.010857136 0.027079185
0003d0 51 80 24 3d dc b1 76 3d 07 85 a4 3d 31 6d 20 3d
       0.040161435 0.060228214 0.080331855 0.039166633
0003e0 29 cc 82 3d 09 2a 23 be 8c bd 9d bc e2 64 1f be
       0.06386597 -0.15934004 -0.019255422 -0.15565827
0003f0 73 38 9f 3d f6 8c 80 3d 26 c8 75 3d 76 b9 23 be
       0.07774439 0.06276886 0.06000533 -0.15988716

functional_1_1/conv2d_1/Relu;functional_1_1/conv2d_1/BiasAdd;functional_1_1/conv2d_1/convolution;functional_1_1/conv2d_1/Squeeze f4 [32]
000000 b4 dd cd 3d 16 de 13 3d a3 00 99 3c b4 59 df 3c
       0.10052052 0.03610047 0.018677061 0.027264453
000010 08 6b 88 3c f0 cd 00 39 b1 9d 89 bd de a3 bd bc
       0.016652599 0.00012283749 -0.067195304 -0.023149427
000020 a3 70 8d 3b 35 8a b3 3d b9 47 2a bb 78 17 c7 3b
       0.004316406 0.08766595 -0.0025982691 0.0060757957
000030 79 03 1a bd 46 6b 9d bd 30 e5 db 3c 0d d7 24 3c
       -0.037600968 -0.076864764 0.026842684 0.010061038
000040 40 ad 62 3b a0 ce 2e bb 4d f4 0a 3c 4e 2c 5f 3c
       0.0034588128 -0.002667345 0.008481097 0.013621403
000050 db 35 bc 3c 1e 7c 24 3c ba a3 b9 3b 64 fe 83 3c
       0.022974899 0.0100393575 0.0056652697 0.016112514
000060 47 3a 84 3c e3 3f 63 3c d6 46 74 bc 38 ac 22 bc
       0.01614107 0.013870212 -0.014909467 -0.009928755
000070 04 9f 98 bc cf 56 15 bd c4 f1 89 b8 0c 0f ce 3c
       -0.018630512 -0.03645974 -6.5777014e-05 0.02515366
